Model initialization
There are 3487788 trainable parameters for generator.
There are 2771649 trainable parameters for nlayerdiscriminator.
Generator(
  (encoder): InfoExchange(
    (Res_layer1): Sequential(
      (0): Conv2d(4, 32, kernel_size=(7, 7), stride=(1, 1), padding=(3, 3))
      (1): ResBlock(
        (residual): Sequential(
          (0): ReflectionPad2d((1, 1, 1, 1))
          (1): Conv2d(32, 32, kernel_size=(3, 3), stride=(1, 1))
          (2): Dropout(p=0.5, inplace=False)
          (3): LeakyReLU(negative_slope=0.01, inplace=True)
          (4): ReflectionPad2d((1, 1, 1, 1))
          (5): Conv2d(32, 32, kernel_size=(3, 3), stride=(1, 1))
          (6): Dropout(p=0.5, inplace=False)
        )
      )
    )
    (Res_layer2): Sequential(
      (0): Conv2d(32, 48, kernel_size=(3, 3), stride=(2, 2), padding=(1, 1))
      (1): ResBlock(
        (residual): Sequential(
          (0): ReflectionPad2d((1, 1, 1, 1))
          (1): Conv2d(48, 48, kernel_size=(3, 3), stride=(1, 1))
          (2): Dropout(p=0.5, inplace=False)
          (3): LeakyReLU(negative_slope=0.01, inplace=True)
          (4): ReflectionPad2d((1, 1, 1, 1))
          (5): Conv2d(48, 48, kernel_size=(3, 3), stride=(1, 1))
          (6): Dropout(p=0.5, inplace=False)
        )
      )
    )
    (Res_layer3): Sequential(
      (0): Conv2d(48, 64, kernel_size=(3, 3), stride=(2, 2), padding=(1, 1))
      (1): ResBlock(
        (residual): Sequential(
          (0): ReflectionPad2d((1, 1, 1, 1))
          (1): Conv2d(64, 64, kernel_size=(3, 3), stride=(1, 1))
          (2): Dropout(p=0.5, inplace=False)
          (3): LeakyReLU(negative_slope=0.01, inplace=True)
          (4): ReflectionPad2d((1, 1, 1, 1))
          (5): Conv2d(64, 64, kernel_size=(3, 3), stride=(1, 1))
          (6): Dropout(p=0.5, inplace=False)
        )
      )
    )
    (Res_layer4): Sequential(
      (0): Conv2d(64, 128, kernel_size=(3, 3), stride=(2, 2), padding=(1, 1))
      (1): ResBlock(
        (residual): Sequential(
          (0): ReflectionPad2d((1, 1, 1, 1))
          (1): Conv2d(128, 128, kernel_size=(3, 3), stride=(1, 1))
          (2): Dropout(p=0.5, inplace=False)
          (3): LeakyReLU(negative_slope=0.01, inplace=True)
          (4): ReflectionPad2d((1, 1, 1, 1))
          (5): Conv2d(128, 128, kernel_size=(3, 3), stride=(1, 1))
          (6): Dropout(p=0.5, inplace=False)
        )
      )
    )
    (ConcatConv1): Sequential(
      (0): Conv2d(64, 32, kernel_size=(1, 1), stride=(1, 1))
      (1): BatchNorm2d(32, eps=1e-05, momentum=0.1, affine=True, track_running_stats=True)
      (2): ReLU(inplace=True)
    )
    (ConcatConv2): Sequential(
      (0): Conv2d(96, 48, kernel_size=(1, 1), stride=(1, 1))
      (1): BatchNorm2d(48, eps=1e-05, momentum=0.1, affine=True, track_running_stats=True)
      (2): ReLU(inplace=True)
    )
    (ConcatConv3): Sequential(
      (0): Conv2d(128, 64, kernel_size=(1, 1), stride=(1, 1))
      (1): BatchNorm2d(64, eps=1e-05, momentum=0.1, affine=True, track_running_stats=True)
      (2): ReLU(inplace=True)
    )
    (ConcatConv4): Sequential(
      (0): Conv2d(256, 128, kernel_size=(1, 1), stride=(1, 1))
      (1): BatchNorm2d(128, eps=1e-05, momentum=0.1, affine=True, track_running_stats=True)
      (2): ReLU(inplace=True)
    )
    (timeInfo1): TFF(
      (catconvA): Sequential(
        (0): Conv2d(64, 32, kernel_size=(3, 3), stride=(1, 1), padding=(1, 1), bias=False)
        (1): BatchNorm2d(32, eps=1e-05, momentum=0.1, affine=True, track_running_stats=True)
        (2): ReLU(inplace=True)
      )
      (catconvB): Sequential(
        (0): Conv2d(64, 32, kernel_size=(3, 3), stride=(1, 1), padding=(1, 1), bias=False)
        (1): BatchNorm2d(32, eps=1e-05, momentum=0.1, affine=True, track_running_stats=True)
        (2): ReLU(inplace=True)
      )
      (catconv): Sequential(
        (0): Conv2d(96, 32, kernel_size=(3, 3), stride=(1, 1), padding=(1, 1), bias=False)
        (1): BatchNorm2d(32, eps=1e-05, momentum=0.1, affine=True, track_running_stats=True)
        (2): ReLU(inplace=True)
      )
      (convA): Conv2d(32, 1, kernel_size=(1, 1), stride=(1, 1))
      (convB): Conv2d(32, 1, kernel_size=(1, 1), stride=(1, 1))
      (sigmoid): Sigmoid()
    )
    (timeInfo2): TFF(
      (catconvA): Sequential(
        (0): Conv2d(96, 48, kernel_size=(3, 3), stride=(1, 1), padding=(1, 1), bias=False)
        (1): BatchNorm2d(48, eps=1e-05, momentum=0.1, affine=True, track_running_stats=True)
        (2): ReLU(inplace=True)
      )
      (catconvB): Sequential(
        (0): Conv2d(96, 48, kernel_size=(3, 3), stride=(1, 1), padding=(1, 1), bias=False)
        (1): BatchNorm2d(48, eps=1e-05, momentum=0.1, affine=True, track_running_stats=True)
        (2): ReLU(inplace=True)
      )
      (catconv): Sequential(
        (0): Conv2d(144, 48, kernel_size=(3, 3), stride=(1, 1), padding=(1, 1), bias=False)
        (1): BatchNorm2d(48, eps=1e-05, momentum=0.1, affine=True, track_running_stats=True)
        (2): ReLU(inplace=True)
      )
      (convA): Conv2d(48, 1, kernel_size=(1, 1), stride=(1, 1))
      (convB): Conv2d(48, 1, kernel_size=(1, 1), stride=(1, 1))
      (sigmoid): Sigmoid()
    )
    (timeInfo3): TFF(
      (catconvA): Sequential(
        (0): Conv2d(128, 64, kernel_size=(3, 3), stride=(1, 1), padding=(1, 1), bias=False)
        (1): BatchNorm2d(64, eps=1e-05, momentum=0.1, affine=True, track_running_stats=True)
        (2): ReLU(inplace=True)
      )
      (catconvB): Sequential(
        (0): Conv2d(128, 64, kernel_size=(3, 3), stride=(1, 1), padding=(1, 1), bias=False)
        (1): BatchNorm2d(64, eps=1e-05, momentum=0.1, affine=True, track_running_stats=True)
        (2): ReLU(inplace=True)
      )
      (catconv): Sequential(
        (0): Conv2d(192, 64, kernel_size=(3, 3), stride=(1, 1), padding=(1, 1), bias=False)
        (1): BatchNorm2d(64, eps=1e-05, momentum=0.1, affine=True, track_running_stats=True)
        (2): ReLU(inplace=True)
      )
      (convA): Conv2d(64, 1, kernel_size=(1, 1), stride=(1, 1))
      (convB): Conv2d(64, 1, kernel_size=(1, 1), stride=(1, 1))
      (sigmoid): Sigmoid()
    )
    (timeInfo4): TFF(
      (catconvA): Sequential(
        (0): Conv2d(256, 128, kernel_size=(3, 3), stride=(1, 1), padding=(1, 1), bias=False)
        (1): BatchNorm2d(128, eps=1e-05, momentum=0.1, affine=True, track_running_stats=True)
        (2): ReLU(inplace=True)
      )
      (catconvB): Sequential(
        (0): Conv2d(256, 128, kernel_size=(3, 3), stride=(1, 1), padding=(1, 1), bias=False)
        (1): BatchNorm2d(128, eps=1e-05, momentum=0.1, affine=True, track_running_stats=True)
        (2): ReLU(inplace=True)
      )
      (catconv): Sequential(
        (0): Conv2d(384, 128, kernel_size=(3, 3), stride=(1, 1), padding=(1, 1), bias=False)
        (1): BatchNorm2d(128, eps=1e-05, momentum=0.1, affine=True, track_running_stats=True)
        (2): ReLU(inplace=True)
      )
      (convA): Conv2d(128, 1, kernel_size=(1, 1), stride=(1, 1))
      (convB): Conv2d(128, 1, kernel_size=(1, 1), stride=(1, 1))
      (sigmoid): Sigmoid()
    )
  )
  (decoder): Decoder(
    (upsample1): Sequential(
      (0): Conv2d(384, 256, kernel_size=(3, 3), stride=(1, 1), padding=(1, 1))
      (1): PixelShuffle(upscale_factor=2)
      (2): LeakyReLU(negative_slope=0.1, inplace=True)
    )
    (upsample2): Sequential(
      (0): Conv2d(192, 192, kernel_size=(3, 3), stride=(1, 1), padding=(1, 1))
      (1): PixelShuffle(upscale_factor=2)
      (2): LeakyReLU(negative_slope=0.1, inplace=True)
    )
    (upsample3): Sequential(
      (0): Conv2d(144, 128, kernel_size=(3, 3), stride=(1, 1), padding=(1, 1))
      (1): PixelShuffle(upscale_factor=2)
      (2): LeakyReLU(negative_slope=0.1, inplace=True)
    )
    (conv): Conv2d(96, 4, kernel_size=(3, 3), stride=(1, 1), padding=(1, 1))
  )
)
NLayerDiscriminator(
  (model0): Sequential(
    (0): Conv2d(8, 64, kernel_size=(4, 4), stride=(2, 2), padding=(2, 2))
    (1): LeakyReLU(negative_slope=0.2, inplace=True)
  )
  (model1): Sequential(
    (0): Conv2d(64, 128, kernel_size=(4, 4), stride=(2, 2), padding=(2, 2))
    (1): BatchNorm2d(128, eps=1e-05, momentum=0.1, affine=True, track_running_stats=True)
    (2): LeakyReLU(negative_slope=0.2, inplace=True)
  )
  (model2): Sequential(
    (0): Conv2d(128, 256, kernel_size=(4, 4), stride=(2, 2), padding=(2, 2))
    (1): BatchNorm2d(256, eps=1e-05, momentum=0.1, affine=True, track_running_stats=True)
    (2): LeakyReLU(negative_slope=0.2, inplace=True)
  )
  (model3): Sequential(
    (0): Conv2d(256, 512, kernel_size=(4, 4), stride=(1, 1), padding=(2, 2))
    (1): BatchNorm2d(512, eps=1e-05, momentum=0.1, affine=True, track_running_stats=True)
    (2): LeakyReLU(negative_slope=0.2, inplace=True)
  )
  (model4): Sequential(
    (0): Conv2d(512, 1, kernel_size=(4, 4), stride=(1, 1), padding=(2, 2))
  )
)
Loading data...
Training...
Learning rate for Generator: 0.0002
Learning rate for Discriminator: 0.0002
Epoch[0] - 2023-05-29 01:25:11.300709
Epoch[0 0/72] - G-Loss: 1.987669 - PD-Loss: 0.637940 - MSE: 0.036223 - Time: 5.3182354010641575s
Epoch[0 1/72] - G-Loss: 1.328862 - PD-Loss: 3.129732 - MSE: 0.026885 - Time: 0.28377695893868804s
…
Epoch[2 28/72] - G-Loss: 0.103895 - PD-Loss: 0.029581 - MSE: 0.000971 - Time: 0.2810946248937398s
Epoch[2 29/72] - G-Loss: 0.081165 - PD-Loss: 0.026697 - MSE: 0.000641 - Time: 0.28263675898779184s
Epoch[2 30/72] - G-Loss: 0.072042 - PD-Loss: 0.022219 - MSE: 0.000589 - Time: 0.28802339104004204s
Epoch[2 31/72] - G-Loss: 0.069108 - PD-Loss: 0.030746 - MSE: 0.000562 - Time: 0.28461417800281197s
Model initialization
There are 4960908 trainable parameters for generator.
There are 2771649 trainable parameters for nlayerdiscriminator.
Generator(
  (encoder): InfoExchange(
    (Res_layer1): Sequential(
      (0): Conv2d(4, 32, kernel_size=(7, 7), stride=(1, 1), padding=(3, 3))
      (1): ResBlock(
        (residual): Sequential(
          (0): ReflectionPad2d((1, 1, 1, 1))
          (1): Conv2d(32, 32, kernel_size=(3, 3), stride=(1, 1))
          (2): Dropout(p=0.5, inplace=False)
          (3): LeakyReLU(negative_slope=0.01, inplace=True)
          (4): ReflectionPad2d((1, 1, 1, 1))
          (5): Conv2d(32, 32, kernel_size=(3, 3), stride=(1, 1))
          (6): Dropout(p=0.5, inplace=False)
        )
      )
    )
    (Res_layer2): Sequential(
      (0): Conv2d(32, 64, kernel_size=(3, 3), stride=(2, 2), padding=(1, 1))
      (1): ResBlock(
        (residual): Sequential(
          (0): ReflectionPad2d((1, 1, 1, 1))
          (1): Conv2d(64, 64, kernel_size=(3, 3), stride=(1, 1))
          (2): Dropout(p=0.5, inplace=False)
          (3): LeakyReLU(negative_slope=0.01, inplace=True)
          (4): ReflectionPad2d((1, 1, 1, 1))
          (5): Conv2d(64, 64, kernel_size=(3, 3), stride=(1, 1))
          (6): Dropout(p=0.5, inplace=False)
        )
      )
    )
    (Res_layer3): Sequential(
      (0): Conv2d(64, 96, kernel_size=(3, 3), stride=(2, 2), padding=(1, 1))
      (1): ResBlock(
        (residual): Sequential(
          (0): ReflectionPad2d((1, 1, 1, 1))
          (1): Conv2d(96, 96, kernel_size=(3, 3), stride=(1, 1))
          (2): Dropout(p=0.5, inplace=False)
          (3): LeakyReLU(negative_slope=0.01, inplace=True)
          (4): ReflectionPad2d((1, 1, 1, 1))
          (5): Conv2d(96, 96, kernel_size=(3, 3), stride=(1, 1))
          (6): Dropout(p=0.5, inplace=False)
        )
      )
    )
    (Res_layer4): Sequential(
      (0): Conv2d(96, 128, kernel_size=(3, 3), stride=(2, 2), padding=(1, 1))
      (1): ResBlock(
        (residual): Sequential(
          (0): ReflectionPad2d((1, 1, 1, 1))
          (1): Conv2d(128, 128, kernel_size=(3, 3), stride=(1, 1))
          (2): Dropout(p=0.5, inplace=False)
          (3): LeakyReLU(negative_slope=0.01, inplace=True)
          (4): ReflectionPad2d((1, 1, 1, 1))
          (5): Conv2d(128, 128, kernel_size=(3, 3), stride=(1, 1))
          (6): Dropout(p=0.5, inplace=False)
        )
      )
    )
    (ConcatConv1): Sequential(
      (0): Conv2d(64, 32, kernel_size=(1, 1), stride=(1, 1))
      (1): BatchNorm2d(32, eps=1e-05, momentum=0.1, affine=True, track_running_stats=True)
      (2): ReLU(inplace=True)
    )
    (ConcatConv2): Sequential(
      (0): Conv2d(128, 64, kernel_size=(1, 1), stride=(1, 1))
      (1): BatchNorm2d(64, eps=1e-05, momentum=0.1, affine=True, track_running_stats=True)
      (2): ReLU(inplace=True)
    )
    (ConcatConv3): Sequential(
      (0): Conv2d(192, 96, kernel_size=(1, 1), stride=(1, 1))
      (1): BatchNorm2d(96, eps=1e-05, momentum=0.1, affine=True, track_running_stats=True)
      (2): ReLU(inplace=True)
    )
    (ConcatConv4): Sequential(
      (0): Conv2d(256, 128, kernel_size=(1, 1), stride=(1, 1))
      (1): BatchNorm2d(128, eps=1e-05, momentum=0.1, affine=True, track_running_stats=True)
      (2): ReLU(inplace=True)
    )
    (timeInfo1): TFF(
      (catconvA): Sequential(
        (0): Conv2d(64, 32, kernel_size=(3, 3), stride=(1, 1), padding=(1, 1), bias=False)
        (1): BatchNorm2d(32, eps=1e-05, momentum=0.1, affine=True, track_running_stats=True)
        (2): ReLU(inplace=True)
      )
      (catconvB): Sequential(
        (0): Conv2d(64, 32, kernel_size=(3, 3), stride=(1, 1), padding=(1, 1), bias=False)
        (1): BatchNorm2d(32, eps=1e-05, momentum=0.1, affine=True, track_running_stats=True)
        (2): ReLU(inplace=True)
      )
      (catconv): Sequential(
        (0): Conv2d(96, 32, kernel_size=(3, 3), stride=(1, 1), padding=(1, 1), bias=False)
        (1): BatchNorm2d(32, eps=1e-05, momentum=0.1, affine=True, track_running_stats=True)
        (2): ReLU(inplace=True)
      )
      (convA): Conv2d(32, 1, kernel_size=(1, 1), stride=(1, 1))
      (convB): Conv2d(32, 1, kernel_size=(1, 1), stride=(1, 1))
      (sigmoid): Sigmoid()
    )
    (timeInfo2): TFF(
      (catconvA): Sequential(
        (0): Conv2d(128, 64, kernel_size=(3, 3), stride=(1, 1), padding=(1, 1), bias=False)
        (1): BatchNorm2d(64, eps=1e-05, momentum=0.1, affine=True, track_running_stats=True)
        (2): ReLU(inplace=True)
      )
      (catconvB): Sequential(
        (0): Conv2d(128, 64, kernel_size=(3, 3), stride=(1, 1), padding=(1, 1), bias=False)
        (1): BatchNorm2d(64, eps=1e-05, momentum=0.1, affine=True, track_running_stats=True)
        (2): ReLU(inplace=True)
      )
      (catconv): Sequential(
        (0): Conv2d(192, 64, kernel_size=(3, 3), stride=(1, 1), padding=(1, 1), bias=False)
        (1): BatchNorm2d(64, eps=1e-05, momentum=0.1, affine=True, track_running_stats=True)
        (2): ReLU(inplace=True)
      )
      (convA): Conv2d(64, 1, kernel_size=(1, 1), stride=(1, 1))
      (convB): Conv2d(64, 1, kernel_size=(1, 1), stride=(1, 1))
      (sigmoid): Sigmoid()
    )
    (timeInfo3): TFF(
      (catconvA): Sequential(
        (0): Conv2d(192, 96, kernel_size=(3, 3), stride=(1, 1), padding=(1, 1), bias=False)
        (1): BatchNorm2d(96, eps=1e-05, momentum=0.1, affine=True, track_running_stats=True)
        (2): ReLU(inplace=True)
      )
      (catconvB): Sequential(
        (0): Conv2d(192, 96, kernel_size=(3, 3), stride=(1, 1), padding=(1, 1), bias=False)
        (1): BatchNorm2d(96, eps=1e-05, momentum=0.1, affine=True, track_running_stats=True)
        (2): ReLU(inplace=True)
      )
      (catconv): Sequential(
        (0): Conv2d(288, 96, kernel_size=(3, 3), stride=(1, 1), padding=(1, 1), bias=False)
        (1): BatchNorm2d(96, eps=1e-05, momentum=0.1, affine=True, track_running_stats=True)
        (2): ReLU(inplace=True)
      )
      (convA): Conv2d(96, 1, kernel_size=(1, 1), stride=(1, 1))
      (convB): Conv2d(96, 1, kernel_size=(1, 1), stride=(1, 1))
      (sigmoid): Sigmoid()
    )
    (timeInfo4): TFF(
      (catconvA): Sequential(
        (0): Conv2d(256, 128, kernel_size=(3, 3), stride=(1, 1), padding=(1, 1), bias=False)
        (1): BatchNorm2d(128, eps=1e-05, momentum=0.1, affine=True, track_running_stats=True)
        (2): ReLU(inplace=True)
      )
      (catconvB): Sequential(
        (0): Conv2d(256, 128, kernel_size=(3, 3), stride=(1, 1), padding=(1, 1), bias=False)
        (1): BatchNorm2d(128, eps=1e-05, momentum=0.1, affine=True, track_running_stats=True)
        (2): ReLU(inplace=True)
      )
      (catconv): Sequential(
        (0): Conv2d(384, 128, kernel_size=(3, 3), stride=(1, 1), padding=(1, 1), bias=False)
        (1): BatchNorm2d(128, eps=1e-05, momentum=0.1, affine=True, track_running_stats=True)
        (2): ReLU(inplace=True)
      )
      (convA): Conv2d(128, 1, kernel_size=(1, 1), stride=(1, 1))
      (convB): Conv2d(128, 1, kernel_size=(1, 1), stride=(1, 1))
      (sigmoid): Sigmoid()
    )
  )
  (decoder): Decoder(
    (upsample1): Sequential(
      (0): Conv2d(384, 384, kernel_size=(3, 3), stride=(1, 1), padding=(1, 1))
      (1): PixelShuffle(upscale_factor=2)
      (2): LeakyReLU(negative_slope=0.1, inplace=True)
    )
    (upsample2): Sequential(
      (0): Conv2d(288, 256, kernel_size=(3, 3), stride=(1, 1), padding=(1, 1))
      (1): PixelShuffle(upscale_factor=2)
      (2): LeakyReLU(negative_slope=0.1, inplace=True)
    )
    (upsample3): Sequential(
      (0): Conv2d(192, 128, kernel_size=(3, 3), stride=(1, 1), padding=(1, 1))
      (1): PixelShuffle(upscale_factor=2)
      (2): LeakyReLU(negative_slope=0.1, inplace=True)
    )
    (conv): Conv2d(96, 4, kernel_size=(3, 3), stride=(1, 1), padding=(1, 1))
  )
)
NLayerDiscriminator(
  (model0): Sequential(
    (0): Conv2d(8, 64, kernel_size=(4, 4), stride=(2, 2), padding=(2, 2))
    (1): LeakyReLU(negative_slope=0.2, inplace=True)
  )
  (model1): Sequential(
    (0): Conv2d(64, 128, kernel_size=(4, 4), stride=(2, 2), padding=(2, 2))
    (1): BatchNorm2d(128, eps=1e-05, momentum=0.1, affine=True, track_running_stats=True)
    (2): LeakyReLU(negative_slope=0.2, inplace=True)
  )
  (model2): Sequential(
    (0): Conv2d(128, 256, kernel_size=(4, 4), stride=(2, 2), padding=(2, 2))
    (1): BatchNorm2d(256, eps=1e-05, momentum=0.1, affine=True, track_running_stats=True)
    (2): LeakyReLU(negative_slope=0.2, inplace=True)
  )
  (model3): Sequential(
    (0): Conv2d(256, 512, kernel_size=(4, 4), stride=(1, 1), padding=(2, 2))
    (1): BatchNorm2d(512, eps=1e-05, momentum=0.1, affine=True, track_running_stats=True)
    (2): LeakyReLU(negative_slope=0.2, inplace=True)
  )
  (model4): Sequential(
    (0): Conv2d(512, 1, kernel_size=(4, 4), stride=(1, 1), padding=(2, 2))
  )
)
Loading data...
Training...
Learning rate for Generator: 0.0002
Learning rate for Discriminator: 0.0002
Epoch[0] - 2023-05-29 01:34:48.164481
Epoch[0 0/72] - G-Loss: 0.791633 - PD-Loss: 0.634730 - MSE: 0.017750 - Time: 6.944074917002581s
Epoch[0 1/72] - G-Loss: 0.458712 - PD-Loss: 3.555101 - MSE: 0.013432 - Time: 0.3257959100883454s
Epoch[0 2/72] - G-Loss: 0.327324 - PD-Loss: 0.557977 - MSE: 0.006773 - Time: 0.3498645559884608s
…
Epoch[2 48/72] - G-Loss: 0.082069 - PD-Loss: 0.218653 - MSE: 0.000744 - Time: 0.30847739498130977s
Epoch[2 49/72] - G-Loss: 0.079329 - PD-Loss: 0.235844 - MSE: 0.000811 - Time: 0.3071164090652019s
Epoch[2 50/72] - G-Loss: 0.078731 - PD-Loss: 0.224002 - MSE: 0.000716 - Time: 0.2844010900007561s
Epoch[2 51/72] - G-Loss: 0.069956 - PD-Loss: 0.280458 - MSE: 0.000622 - Time: 0.3057191689731553s
Model initialization
There are 3072748 trainable parameters for generator.
There are 2771649 trainable parameters for nlayerdiscriminator.
Generator(
  (encoder): InfoExchange(
    (Res_layer1): Sequential(
      (0): Conv2d(4, 16, kernel_size=(7, 7), stride=(1, 1), padding=(3, 3))
      (1): ResBlock(
        (residual): Sequential(
          (0): ReflectionPad2d((1, 1, 1, 1))
          (1): Conv2d(16, 16, kernel_size=(3, 3), stride=(1, 1))
          (2): Dropout(p=0.5, inplace=False)
          (3): LeakyReLU(negative_slope=0.01, inplace=True)
          (4): ReflectionPad2d((1, 1, 1, 1))
          (5): Conv2d(16, 16, kernel_size=(3, 3), stride=(1, 1))
          (6): Dropout(p=0.5, inplace=False)
        )
      )
    )
    (Res_layer2): Sequential(
      (0): Conv2d(16, 32, kernel_size=(3, 3), stride=(2, 2), padding=(1, 1))
      (1): ResBlock(
        (residual): Sequential(
          (0): ReflectionPad2d((1, 1, 1, 1))
          (1): Conv2d(32, 32, kernel_size=(3, 3), stride=(1, 1))
          (2): Dropout(p=0.5, inplace=False)
          (3): LeakyReLU(negative_slope=0.01, inplace=True)
          (4): ReflectionPad2d((1, 1, 1, 1))
          (5): Conv2d(32, 32, kernel_size=(3, 3), stride=(1, 1))
          (6): Dropout(p=0.5, inplace=False)
        )
      )
    )
    (Res_layer3): Sequential(
      (0): Conv2d(32, 64, kernel_size=(3, 3), stride=(2, 2), padding=(1, 1))
      (1): ResBlock(
        (residual): Sequential(
          (0): ReflectionPad2d((1, 1, 1, 1))
          (1): Conv2d(64, 64, kernel_size=(3, 3), stride=(1, 1))
          (2): Dropout(p=0.5, inplace=False)
          (3): LeakyReLU(negative_slope=0.01, inplace=True)
          (4): ReflectionPad2d((1, 1, 1, 1))
          (5): Conv2d(64, 64, kernel_size=(3, 3), stride=(1, 1))
          (6): Dropout(p=0.5, inplace=False)
        )
      )
    )
    (Res_layer4): Sequential(
      (0): Conv2d(64, 128, kernel_size=(3, 3), stride=(2, 2), padding=(1, 1))
      (1): ResBlock(
        (residual): Sequential(
          (0): ReflectionPad2d((1, 1, 1, 1))
          (1): Conv2d(128, 128, kernel_size=(3, 3), stride=(1, 1))
          (2): Dropout(p=0.5, inplace=False)
          (3): LeakyReLU(negative_slope=0.01, inplace=True)
          (4): ReflectionPad2d((1, 1, 1, 1))
          (5): Conv2d(128, 128, kernel_size=(3, 3), stride=(1, 1))
          (6): Dropout(p=0.5, inplace=False)
        )
      )
    )
    (ConcatConv1): Sequential(
      (0): Conv2d(32, 16, kernel_size=(1, 1), stride=(1, 1))
      (1): BatchNorm2d(16, eps=1e-05, momentum=0.1, affine=True, track_running_stats=True)
      (2): ReLU(inplace=True)
    )
    (ConcatConv2): Sequential(
      (0): Conv2d(64, 32, kernel_size=(1, 1), stride=(1, 1))
      (1): BatchNorm2d(32, eps=1e-05, momentum=0.1, affine=True, track_running_stats=True)
      (2): ReLU(inplace=True)
    )
    (ConcatConv3): Sequential(
      (0): Conv2d(128, 64, kernel_size=(1, 1), stride=(1, 1))
      (1): BatchNorm2d(64, eps=1e-05, momentum=0.1, affine=True, track_running_stats=True)
      (2): ReLU(inplace=True)
    )
    (ConcatConv4): Sequential(
      (0): Conv2d(256, 128, kernel_size=(1, 1), stride=(1, 1))
      (1): BatchNorm2d(128, eps=1e-05, momentum=0.1, affine=True, track_running_stats=True)
      (2): ReLU(inplace=True)
    )
    (timeInfo1): TFF(
      (catconvA): Sequential(
        (0): Conv2d(32, 16, kernel_size=(3, 3), stride=(1, 1), padding=(1, 1), bias=False)
        (1): BatchNorm2d(16, eps=1e-05, momentum=0.1, affine=True, track_running_stats=True)
        (2): ReLU(inplace=True)
      )
      (catconvB): Sequential(
        (0): Conv2d(32, 16, kernel_size=(3, 3), stride=(1, 1), padding=(1, 1), bias=False)
        (1): BatchNorm2d(16, eps=1e-05, momentum=0.1, affine=True, track_running_stats=True)
        (2): ReLU(inplace=True)
      )
      (catconv): Sequential(
        (0): Conv2d(48, 16, kernel_size=(3, 3), stride=(1, 1), padding=(1, 1), bias=False)
        (1): BatchNorm2d(16, eps=1e-05, momentum=0.1, affine=True, track_running_stats=True)
        (2): ReLU(inplace=True)
      )
      (convA): Conv2d(16, 1, kernel_size=(1, 1), stride=(1, 1))
      (convB): Conv2d(16, 1, kernel_size=(1, 1), stride=(1, 1))
      (sigmoid): Sigmoid()
    )
    (timeInfo2): TFF(
      (catconvA): Sequential(
        (0): Conv2d(64, 32, kernel_size=(3, 3), stride=(1, 1), padding=(1, 1), bias=False)
        (1): BatchNorm2d(32, eps=1e-05, momentum=0.1, affine=True, track_running_stats=True)
        (2): ReLU(inplace=True)
      )
      (catconvB): Sequential(
        (0): Conv2d(64, 32, kernel_size=(3, 3), stride=(1, 1), padding=(1, 1), bias=False)
        (1): BatchNorm2d(32, eps=1e-05, momentum=0.1, affine=True, track_running_stats=True)
        (2): ReLU(inplace=True)
      )
      (catconv): Sequential(
        (0): Conv2d(96, 32, kernel_size=(3, 3), stride=(1, 1), padding=(1, 1), bias=False)
        (1): BatchNorm2d(32, eps=1e-05, momentum=0.1, affine=True, track_running_stats=True)
        (2): ReLU(inplace=True)
      )
      (convA): Conv2d(32, 1, kernel_size=(1, 1), stride=(1, 1))
      (convB): Conv2d(32, 1, kernel_size=(1, 1), stride=(1, 1))
      (sigmoid): Sigmoid()
    )
    (timeInfo3): TFF(
      (catconvA): Sequential(
        (0): Conv2d(128, 64, kernel_size=(3, 3), stride=(1, 1), padding=(1, 1), bias=False)
        (1): BatchNorm2d(64, eps=1e-05, momentum=0.1, affine=True, track_running_stats=True)
        (2): ReLU(inplace=True)
      )
      (catconvB): Sequential(
        (0): Conv2d(128, 64, kernel_size=(3, 3), stride=(1, 1), padding=(1, 1), bias=False)
        (1): BatchNorm2d(64, eps=1e-05, momentum=0.1, affine=True, track_running_stats=True)
        (2): ReLU(inplace=True)
      )
      (catconv): Sequential(
        (0): Conv2d(192, 64, kernel_size=(3, 3), stride=(1, 1), padding=(1, 1), bias=False)
        (1): BatchNorm2d(64, eps=1e-05, momentum=0.1, affine=True, track_running_stats=True)
        (2): ReLU(inplace=True)
      )
      (convA): Conv2d(64, 1, kernel_size=(1, 1), stride=(1, 1))
      (convB): Conv2d(64, 1, kernel_size=(1, 1), stride=(1, 1))
      (sigmoid): Sigmoid()
    )
    (timeInfo4): TFF(
      (catconvA): Sequential(
        (0): Conv2d(256, 128, kernel_size=(3, 3), stride=(1, 1), padding=(1, 1), bias=False)
        (1): BatchNorm2d(128, eps=1e-05, momentum=0.1, affine=True, track_running_stats=True)
        (2): ReLU(inplace=True)
      )
      (catconvB): Sequential(
        (0): Conv2d(256, 128, kernel_size=(3, 3), stride=(1, 1), padding=(1, 1), bias=False)
        (1): BatchNorm2d(128, eps=1e-05, momentum=0.1, affine=True, track_running_stats=True)
        (2): ReLU(inplace=True)
      )
      (catconv): Sequential(
        (0): Conv2d(384, 128, kernel_size=(3, 3), stride=(1, 1), padding=(1, 1), bias=False)
        (1): BatchNorm2d(128, eps=1e-05, momentum=0.1, affine=True, track_running_stats=True)
        (2): ReLU(inplace=True)
      )
      (convA): Conv2d(128, 1, kernel_size=(1, 1), stride=(1, 1))
      (convB): Conv2d(128, 1, kernel_size=(1, 1), stride=(1, 1))
      (sigmoid): Sigmoid()
    )
  )
  (decoder): Decoder(
    (upsample1): Sequential(
      (0): Conv2d(384, 256, kernel_size=(3, 3), stride=(1, 1), padding=(1, 1))
      (1): PixelShuffle(upscale_factor=2)
      (2): LeakyReLU(negative_slope=0.1, inplace=True)
    )
    (upsample2): Sequential(
      (0): Conv2d(192, 128, kernel_size=(3, 3), stride=(1, 1), padding=(1, 1))
      (1): PixelShuffle(upscale_factor=2)
      (2): LeakyReLU(negative_slope=0.1, inplace=True)
    )
    (upsample3): Sequential(
      (0): Conv2d(96, 64, kernel_size=(3, 3), stride=(1, 1), padding=(1, 1))
      (1): PixelShuffle(upscale_factor=2)
      (2): LeakyReLU(negative_slope=0.1, inplace=True)
    )
    (conv): Conv2d(48, 4, kernel_size=(3, 3), stride=(1, 1), padding=(1, 1))
  )
)
NLayerDiscriminator(
  (model0): Sequential(
    (0): Conv2d(8, 64, kernel_size=(4, 4), stride=(2, 2), padding=(2, 2))
    (1): LeakyReLU(negative_slope=0.2, inplace=True)
  )
  (model1): Sequential(
    (0): Conv2d(64, 128, kernel_size=(4, 4), stride=(2, 2), padding=(2, 2))
    (1): BatchNorm2d(128, eps=1e-05, momentum=0.1, affine=True, track_running_stats=True)
    (2): LeakyReLU(negative_slope=0.2, inplace=True)
  )
  (model2): Sequential(
    (0): Conv2d(128, 256, kernel_size=(4, 4), stride=(2, 2), padding=(2, 2))
    (1): BatchNorm2d(256, eps=1e-05, momentum=0.1, affine=True, track_running_stats=True)
    (2): LeakyReLU(negative_slope=0.2, inplace=True)
  )
  (model3): Sequential(
    (0): Conv2d(256, 512, kernel_size=(4, 4), stride=(1, 1), padding=(2, 2))
    (1): BatchNorm2d(512, eps=1e-05, momentum=0.1, affine=True, track_running_stats=True)
    (2): LeakyReLU(negative_slope=0.2, inplace=True)
  )
  (model4): Sequential(
    (0): Conv2d(512, 1, kernel_size=(4, 4), stride=(1, 1), padding=(2, 2))
  )
)
Traceback (most recent call last):
  File "run.py", line 79, in <module>
    experiment.train(train_dir, val_dir,
  File "/home/clhu/STF/srntt_AdaIN/experiment.py", line 277, in train
    load_checkpoint(self.last_g, self.generator, optimizer=self.g_optimizer)
  File "/home/clhu/STF/srntt_AdaIN/utils.py", line 72, in load_checkpoint
    model.load_state_dict(state['state_dict'])
…
